src/ehr_foundation_model_benchmark/tutorials/serialization/models/linear_probing_hf_readmission_meds.pth (torch, 14138 bytes, 2 tensors)

fc.weight f4 [2, 1536]
00000000: 8f84 1a3c 8231 353c cdb9 93bb acc2 cf3b
00000010: 4f01 b1bc 33ae 143c 6dfc 893b 066e 1f3d
00000020: b7bb c43c 29e5 1abb effa 51b7 75b0 523c
00000030: 3cca 123c be0f 103c b86a b1b9 96cf 9e3c
00000040: 0d5c 503c 8de9 05bc 2983 fa3b 5d46 1a3c
00000050: 0bd5 a1bc b60b 8bbb 16fe 71bc 151d 013c
00000060: 2bd3 43bc a0ac a33a bab2 593c 9325 8cbc
00000070: 7bef 453c b1f1 fbbc adcd dd3c 60fd fabc
00000080: 1238 8b3c eda2 85ba 515e 73bb 7269 c33a
00000090: af56 09bc 9776 95bb 51a5 e13b ac3d b63a
000000a0: d708 203c 08f3 f5bb 981e ab3b e82f 1b3c
000000b0: aa2f c23c 517c a7bc e925 053b a6b4 dbbb
000000c0: f2e0 2ebc a077 7ebc 8609 10bc b738 0c3c
000000d0: c8d0 0dbc 2a94 ca3c 933c 4f3c ce56 883c
000000e0: 258c dbbb 9c60 54bc c441 2d3c 5994 19bd
000000f0: 7f49 1e3b 1112 d1bc 9f2f 33bc 3a22 26bc
00000100: b750 c83b 704e 2ebc 8c7e 4e3c d9b3 37bb
00000110: ee2e 4ab9 caca 8e3b eaac c93b 5aa2 183c
00000120: beaa 043d 3884 0f3c 32d2 29bc a5a2 83bb
00000130: 3d6e 9bbc 2abf f939 9c3d 533c 87d6 4b3a
00000140: 8817 62bb 7114 74bc c6d5 163d 0195 303c
00000150: 1b3a 42bc d961 3fbc 0d4a 9c3a bb0d cf3b
00000160: 17d7 843b 0b61 69bc 1445 0f3b 7442 a8bc
00000170: 9fd8 f43b a52e 6d3c 03a4 5bbc 2227 a8bb
00000180: 74d6 cb3c 962c f0bb d4b0 31bc 4df8 87bc
00000190: 6883 67bc 2c52 eb3a 2aa9 6e3c 4323 f23b
000001a0: f583 1d3b 9265 c2bc e50d 84bc cfaa 68bc
000001b0: 671b dcbc a331 5dbb bc70 f73b a6d4 aeba
000001c0: 3f6d 973b bc79 ccbc d7b0 c1bb 6671 d1bc
000001d0: 3b26 5a3c cc4a 91bc ad99 95bb 016d f5bc
000001e0: 0e6e 5f3c 0a84 07bd 3e4f 3b3c f865 07bc
000001f0: 1fef e83b 6467 2bbc 2e52 8cbb 9aa3 aebc
00000200: fcf3 a03c c4b5 92bc 2742 a83c 8607 cb3b
00000210: 1f2c cbbc 4397 ed3b 458b fabb 5c22 05bc
00000220: beda 67bc 07c1 90bb 63c4 4b3c 6d61 563c
00000230: cf96 883c 3f13 33bd 84e1 7f3c 62a3 b6ba
00000240: dad1 e53b b3cf d93b f69b c23c 7b2f 153d
00000250: 10c3 bd3c 9b32 38bc 0080 783b a286 603a
00000260: bc90 7fbb 56aa 37bc 7d80 023c 4906 a5bc
00000270: 752f 8a3c 23fa 013d f245 9bbc f2d0 92bb
00000280: 4681 4e3c 0812 513b b474 83bc 477d 97bc
00000290: eea4 c0bb 2b71 a9bc 3f8e 063d 5bdd 043c
000002a0: 18b1 1e3c 340f 383c 0139 eb3b 51a2 5b3c
000002b0: 9da3 e63b ec38 97bc 4f98 f1b9 58d8 273c
000002c0: e754 81bc e2db 1e3a 5938 913c ae68 00bd
000002d0: 3952 043c 1846 debb e215 833b 9cbc 74bc
000002e0: 5d56 383c bad0 cd3c 6aa7 4cbb ea46 1cb8
000002f0: 9c35 30bb be5d f43b 19e1 933a 312d 0abc
00000300: e5c6 763c 3c9c 363c 2bca 28bc 266c f038
00000310: ec3b 2a3b d576 12bb f618 8d3b 05a0 7b3c
00000320: 6ee8 b2b9 9c50 7eba db67 dd3b 0530 a73c
00000330: 4def 89bb 74c5 793b b738 92bc 3e52 eabc
00000340: 5dda 203b 1116 bc3c df58 9e3c 925a 823c
00000350: 07ef dabc 6e82 b0bb 6108 6b3c cf54 e23c
00000360: 3154 5dbb 93d1 e43c e119 673c 605c 0dbc
00000370: 5e18 80ba bc56 58bb 6c20 883b 8b14 d43a
00000380: 5a09 e9bc e2b9 6f3c 6182 0f3c 99ad 2f3b
00000390: 01a9 91bc 0836 dbbc 8d68 04bc 95a1 db3c
000003a0: 04ca 613b b44c 8a3c 74fc 1bba 97ad ee3b
000003b0: 0584 6ebc 1c76 23bc a63c 58bc 95d0 c3bc
000003c0: 2ff0 2c3c 48d7 f8bb 5df7 17bc bea8 38bc
000003d0: 6556 e83b 8996 e1bb 26bf 91bc 69a7 533c
000003e0: 241e 6c3a 1248 743c 85e5 76bc 957f 03bc
000003f0: 2be7 a43a 7fc2 f7bc 082e 9abb b484 19bd
0.0094310185 0.011059167 -0.004508233 0.0063403454 -0.02160707 0.009074735 0.0042109997 0.038923286
0.02401529 -0.0023635125 -1.2515796e-05 0.012859453 0.008959349 0.008792816 -0.00033839582 0.019386094
0.012717259 -0.008173359 0.00764503 0.00941619 -0.019754907 -0.0042433394 -0.014770051 0.007880469
-0.011952202 0.0012487359 0.013287241 -0.01710776 0.012081022 -0.030754896 0.027075613 -0.030638397
0.01699451 -0.001019565 -0.0037135074 0.0014908744 -0.008382483 -0.004561256 0.0068861623 0.0013903878
0.009767733 -0.007505778 0.005222153 0.009471871 0.023704369 -0.02044502 0.0020316786 -0.0067048846
-0.010673748 -0.0155314505 -0.008791333 0.008558444 -0.008655734 0.024728853 0.012648719 0.016642954
-0.006700056 -0.012962487 0.010574762 -0.03749499 0.0024152694 -0.02552131 -0.010936647 -0.010139996
0.0061131376 -0.010638818 0.012603413 -0.0028030782 -0.00019281704 0.0043576704 0.006154646 0.009316051
0.032389395 0.008759551 -0.010365056 -0.0040171915 -0.018973464 0.0004763541 0.012893107 0.00077758025
-0.003449889 -0.014897452 0.036824964 0.010777713 -0.011854674 -0.011681044 0.0011923924 0.0063187755
0.004053961 -0.014244328 0.0021861242 -0.0205395 0.0074721123 0.014476453 -0.013405803 -0.005131618
0.024882533 -0.007329534 -0.010845382 -0.016597891 -0.014130451 0.0017953566 0.014566699 0.0073894574
0.0024034951 -0.023730073 -0.016119907 -0.01420088 -0.026868535 -0.003375151 0.007551281 -0.0013338521
0.0046211774 -0.024960391 -0.0059109735 -0.025566768 0.013314779 -0.017735861 -0.0045654387 -0.029959204
0.013637079 -0.033084907 0.011432467 -0.008264057 0.0071085836 -0.010461662 -0.0042822575 -0.021318246
0.01964759 -0.017908938 0.020539356 0.006195965 -0.024801312 0.007250698 -0.0076459968 -0.008125868
-0.014151273 -0.004417542 0.012436959 0.013084752 0.016673474 -0.043719526 0.015617732 -0.001393419
0.0070135416 0.006647074 0.023756009 0.036422234 0.023164302 -0.011242534 0.003791809 0.0008564984
-0.003899618 -0.011210045 0.007965204 -0.020144599 0.016868332 0.03173269 -0.018954251 -0.0044804746
0.012604063 0.0031901617 -0.01604686 -0.018492354 -0.005879036 -0.020683846 0.0328505 0.008109416
0.009685777 0.011234093 0.0071784263 0.0134053985 0.007038547 -0.01845976 -0.0004608058 0.010244451
-0.015787555 0.0006059987 0.017727064 -0.03134983 0.008076244 -0.006783258 0.0040004114 -0.014937546
0.011251059 0.025123943 -0.0031227716 -3.7259342e-05 -0.0026887422 0.007457464 0.0011282294 -0.008433626
0.015062069 0.011145648 -0.010302107 0.00011464236 0.0025975658 -0.0022348661 0.004305954 0.015357976
-0.0003412398 -0.0009701343 0.0067567653 0.02040864 -0.004209435 0.0038112076 -0.01784931 -0.02860367
0.0024544217 0.02295974 0.019329486 0.015912328 -0.026725305 -0.005386642 0.014345259 0.02762833
-0.0033772106 0.027931964 0.014105291 -0.008627981 -0.0009772887 -0.0033010682 0.0041542556 0.0016180439
-0.028446842 0.01463172 0.008759112 0.0026806353 -0.017780783 -0.026759163 -0.0080815675 0.026810447
0.0034452686 0.016882278 -0.0005950399 0.007283877 -0.014557843 -0.00997689 -0.013198053 -0.02390317
0.010555311 -0.007594023 -0.009275285 -0.0112707 0.007090377 -0.0068844003 -0.017791342 0.012918332
0.0009007177 0.014909761 -0.01506937 -0.008026023 0.00125811 -0.03024411 -0.0047051944 -0.03748007

fc.bias f4 [2]
00000000: 51bc 093f 61c8 0abf
0.53802973 -0.54212004
